…
        Reset Parameters :
                goal_speed -> 1.0
                goal_size -> 5.0
Unity brain name: ReacherBrain
        Number of Visual Observations (per agent): 0
        Vector Observation space type: continuous
        Vector Observation space size (per agent): 33
        Number of stacked Vector Observation: 1
        Vector Action space type: continuous
        Vector Action space size (per agent): 4
        Vector Action descriptions: , , ,
Number of agents: 20
Number of actions: 4
States look like: [ … States have length: 33
Seed used: 0
Device used: cuda:0
Actor Local DDPG -> Actor(
  (fc1): Linear(in_features=33, out_features=400, bias=True)
  (fc2): Linear(in_features=400, out_features=300, bias=True)
  (fc3): Linear(in_features=300, out_features=4, bias=True)
)
Actor Target DDPG -> Actor(
  (fc1): Linear(in_features=33, out_features=400, bias=True)
  (fc2): Linear(in_features=400, out_features=300, bias=True)
  (fc3): Linear(in_features=300, out_features=4, bias=True)
)
Critic Local DDPG -> Critic(
  (fcs1): Linear(in_features=33, out_features=400, bias=True)
  (fc2): Linear(in_features=404, out_features=300, bias=True)
  (fc3): Linear(in_features=300, out_features=50, bias=True)
  (fc4): Linear(in_features=50, out_features=1, bias=True)
)
Critic Target DDPG -> Critic(
  (fcs1): Linear(in_features=33, out_features=400, bias=True)
  (fc2): Linear(in_features=404, out_features=300, bias=True)
  (fc3): Linear(in_features=300, out_features=50, bias=True)
  (fc4): Linear(in_features=50, out_features=1, bias=True)
)
Ep. 1/200 - Avg Global Score: 0.52 - Avg Ep. Score: 0.52 - Min Ep. Score: 0.00 - Max Ep. Score: 1.10 - Actor loss: -0.039986, Critic loss: 0.000004 - time: 0:00:38.290019
Ep. 2/200 - Avg Global Score: 0.41 - Avg Ep. Score: 0.29 - Min Ep. Score: 0.00 - Max Ep. Score: 0.86 - Actor loss: -0.042949, Critic loss: 0.000004 - time: 0:00:39.398396
Ep. 3/200 - Avg Global Score: 0.52 - Avg Ep. Score: 0.76 - Min Ep. Score: 0.00 - Max Ep. Score: 1.85 - Actor loss: -0.044378, Critic loss: 0.000005 - time: 0:00:39.847287
…
